…
{"obj": {"type": "AssignFloat", "path": ["model", "parameters", "Beta 1"], "value": 0.9}, "version": 28}
{"obj": {"type": "AssignFloat", "path": ["model", "parameters", "Beta 2"], "value": 0.999}, "version": 29}
{"obj": {"type": "AssignInt", "path": ["model", "parameters", "n_epochs"], "value": 100}, "version": 30}
{"obj": {"type": "AssignInt", "path": ["model", "parameters", "val_set"], "value": 9}, "version": 31}
{"obj": {"type": "AssignString", "path": ["model", "model_architecture"], "value": "USleep(\n  (encoder): Sequential(\n    (0): _EncoderBlock(\n      (block_prepool): Sequential(\n        (0): Conv1d(3, 6, kernel_size=(9,), stride=(1,), padding=same)\n        (1): ELU(alpha=1.0)\n        (2): BatchNorm1d(6, eps=1e-05, momentum=0.1, affine=True, track_running_stats=True)\n      )\n      (pad): ConstantPad1d(padding=(1, 1), value=0)\n      (maxpool): MaxPool1d(kernel_size=2, stride=2, padding=0, dilation=1, ceil_mode=False)\n    )\n    (1): _EncoderBlock(\n      (block_prepool): Sequential(\n        (0): Conv1d(6, 9, kernel_size=(9,), stride=(1,), padding=same)\n        (1): ELU(alpha=1.0)\n        (2): BatchNorm1d(9, eps=1e-05, momentum=0.1, affine=True, track_running_stats=True)\n      )\n      (pad): ConstantPad1d(padding=(1, 1), value=0)\n      (maxpool): MaxPool1d(kernel_size=2, stride=2, padding=0, dilation=1, ceil_mode=False)\n    )\n    (2): _EncoderBlock(\n      (block_prepool): Sequential(\n        (0): Conv1d(9, 11, kernel_size=(9,), stride=(1,), padding=same)\n        (1): ELU(alpha=1.0)\n        (2): BatchNorm1d(11, eps=1e-05, momentum=0.1, affine=True, track_running_stats=True)\n      )\n      (pad): ConstantPad1d(padding=(1, 1), value=0)\n      (maxpool): MaxPool1d(kernel_size=2, stride=2, padding=0, dilation=1, ceil_mode=False)\n    )\n    (3): _EncoderBlock(\n      (block_prepool): Sequential(\n        (0): Conv1d(11, 15, kernel_size=(9,), stride=(1,), padding=same)\n        (1): ELU(alpha=1.0)\n        (2): BatchNorm1d(15, eps=1e-05, momentum=0.1, affine=True, track_running_stats=True)\n      )\n      (pad): ConstantPad1d(padding=(1, 1), value=0)\n      (maxpool): MaxPool1d(kernel_size=2, stride=2, padding=0, dilation=1, ceil_mode=False)\n    )\n    (4): _EncoderBlock(\n      (block_prepool): Sequential(\n        (0): Conv1d(15, 20, kernel_size=(9,), stride=(1,), padding=same)\n        (1): ELU(alpha=1.0)\n        (2): BatchNorm1d(20, eps=1e-05, momentum=0.1, affine=True, track_running_stats=True)\n      )\n      (pad): ConstantPad1d(padding=(1, 1), value=0)\n      (maxpool): MaxPool1d(kernel_size=2, stride=2, padding=0, dilation=1, ceil_mode=False)\n    )\n    (5): _EncoderBlock(\n      (block_prepool): Sequential(\n        (0): Conv1d(20, 28, kernel_size=(9,), stride=(1,), padding=same)\n        (1): ELU(alpha=1.0)\n        (2): BatchNorm1d(28, eps=1e-05, momentum=0.1, affine=True, track_running_stats=True)\n      )\n      (pad): ConstantPad1d(padding=(1, 1), value=0)\n      (maxpool): MaxPool1d(kernel_size=2, stride=2, padding=0, dilation=1, ceil_mode=False)\n    )\n    (6): _EncoderBlock(\n      (block_prepool): Sequential(\n        (0): Conv1d(28, 40, kernel_size=(9,), stride=(1,), padding=same)\n        (1): ELU(alpha=1.0)\n        (2): BatchNorm1d(40, eps=1e-05, momentum=0.1, affine=True, track_running_stats=True)\n      )\n      (pad): ConstantPad1d(padding=(1, 1), value=0)\n      (maxpool): MaxPool1d(kernel_size=2, stride=2, padding=0, dilation=1, ceil_mode=False)\n    )\n    (7): _EncoderBlock(\n      (block_prepool): Sequential(\n        (0): Conv1d(40, 55, kernel_size=(9,), stride=(1,), padding=same)\n        (1): ELU(alpha=1.0)\n        (2): BatchNorm1d(55, eps=1e-05, momentum=0.1, affine=True, track_running_stats=True)\n      )\n      (pad): ConstantPad1d(padding=(1, 1), value=0)\n      (maxpool): MaxPool1d(kernel_size=2, stride=2, padding=0, dilation=1, ceil_mode=False)\n    )\n    (8): _EncoderBlock(\n      (block_prepool): Sequential(\n        (0): Conv1d(55, 77, kernel_size=(9,), stride=(1,), padding=same)\n        (1): ELU(alpha=1.0)\n        (2): BatchNorm1d(77, eps=1e-05, momentum=0.1, affine=True, track_running_stats=True)\n      )\n      (pad): ConstantPad1d(padding=(1, 1), value=0)\n      (maxpool): MaxPool1d(kernel_size=2, stride=2, padding=0, dilation=1, ceil_mode=False)\n    )\n    (9): _EncoderBlock(\n      (block_prepool): Sequential(\n        (0): Conv1d(77, 108, kernel_size=(9,), stride=(1,), padding=same)\n        (1): ELU(alpha=1.0)\n        (2): BatchNorm1d(108, eps=1e-05, momentum=0.1, affine=True, track_running_stats=True)\n      )\n      (pad): ConstantPad1d(padding=(1, 1), value=0)\n      (maxpool): MaxPool1d(kernel_size=2, stride=2, padding=0, dilation=1, ceil_mode=False)\n    )\n    (10): _EncoderBlock(\n      (block_prepool): Sequential(\n        (0): Conv1d(108, 152, kernel_size=(9,), stride=(1,), padding=same)\n        (1): ELU(alpha=1.0)\n        (2): BatchNorm1d(152, eps=1e-05, momentum=0.1, affine=True, track_running_stats=True)\n      )\n      (pad): ConstantPad1d(padding=(1, 1), value=0)\n      (maxpool): MaxPool1d(kernel_size=2, stride=2, padding=0, dilation=1, ceil_mode=False)\n    )\n    (11): _EncoderBlock(\n      (block_prepool): Sequential(\n        (0): Conv1d(152, 214, kernel_size=(9,), stride=(1,), padding=same)\n        (1): ELU(alpha=1.0)\n        (2): BatchNorm1d(214, eps=1e-05, momentum=0.1, affine=True, track_running_stats=True)\n      )\n      (pad): ConstantPad1d(padding=(1, 1), value=0)\n      (maxpool): MaxPool1d(kernel_size=2, stride=2, padding=0, dilation=1, ceil_mode=False)\n    )\n  )\n  (bottom): Sequential(\n    (0): Conv1d(214, 302, kernel_size=(9,), stride=(1,), padding=(4,))\n    (1): ELU(alpha=1.0)\n    (2): BatchNorm1d(302, eps=1e-05, momentum=0.1, affine=True, track_running_stats=True)\n  )\n  (decoder): Sequential(\n    (0): _DecoderBlock(\n      (block_preskip): Sequential(\n        (0): Upsample(scale_factor=2.0, mode=nearest)\n        (1): Conv1d(302, 214, kernel_size=(2,), stride=(1,), padding=same)\n        (2): ELU(alpha=1.0)\n        (3): BatchNorm1d(214, eps=1e-05, momentum=0.1, affine=True, track_running_stats=True)\n      )\n      (block_postskip): Sequential(\n        (0): Conv1d(428, 214, kernel_size=(9,), stride=(1,), padding=same)\n        (1): ELU(alpha=1.0)\n        (2): BatchNorm1d(214, eps=1e-05, momentum=0.1, affine=True, track_running_stats=True)\n      )\n    )\n    (1): _DecoderBlock(\n      (block_preskip): Sequential(\n        (0): Upsample(scale_factor=2.0, mode=nearest)\n        (1): Conv1d(214, 152, kernel_size=(2,), stride=(1,), padding=same)\n        (2): ELU(alpha=1.0)\n        (3): BatchNorm1d(152, eps=1e-05, momentum=0.1, affine=True, track_running_stats=True)\n      )\n      (block_postskip): Sequential(\n        (0): Conv1d(304, 152, kernel_size=(9,), stride=(1,), padding=same)\n        (1): ELU(alpha=1.0)\n        (2): BatchNorm1d(152, eps=1e-05, momentum=0.1, affine=True, track_running_stats=True)\n      )\n    )\n    (2): _DecoderBlock(\n      (block_preskip): Sequential(\n        (0): Upsample(scale_factor=2.0, mode=nearest)\n        (1): Conv1d(152, 108, kernel_size=(2,), stride=(1,), padding=same)\n        (2): ELU(alpha=1.0)\n        (3): BatchNorm1d(108, eps=1e-05, momentum=0.1, affine=True, track_running_stats=True)\n      )\n      (block_postskip): Sequential(\n        (0): Conv1d(216, 108, kernel_size=(9,), stride=(1,), padding=same)\n        (1): ELU(alpha=1.0)\n        (2): BatchNorm1d(108, eps=1e-05, momentum=0.1, affine=True, track_running_stats=True)\n      )\n    )\n    (3): _DecoderBlock(\n      (block_preskip): Sequential(\n        (0): Upsample(scale_factor=2.0, mode=nearest)\n        (1): Conv1d(108, 77, kernel_size=(2,), stride=(1,), padding=same)\n        (2): ELU(alpha=1.0)\n        (3): BatchNorm1d(77, eps=1e-05, momentum=0.1, affine=True, track_running_stats=True)\n      )\n      (block_postskip): Sequential(\n        (0): Conv1d(154, 77, kernel_size=(9,), stride=(1,), padding=same)\n        (1): ELU(alpha=1.0)\n        (2): BatchNorm1d(77, eps=1e-05, momentum=0.1, affine=True, track_running_stats=True)\n      )\n    )\n    (4): _DecoderBlock(\n      (block_preskip): Sequential(\n        (0): Upsample(scale_factor=2.0, mode=nearest)\n        (1): Conv1d(77, 55, kernel_size=(2,), stride=(1,), padding=same)\n        (2): ELU(alpha=1.0)\n        (3): BatchNorm1d(55, eps=1e-05, momentum=0.1, affine=True, track_running_stats=True)\n      )\n      (block_postskip): Sequential(\n        (0): Conv1d(110, 55, kernel_size=(9,), stride=(1,), padding=same)\n        (1): ELU(alpha=1.0)\n        (2): BatchNorm1d(55, eps=1e-05, momentum=0.1, affine=True, track_running_stats=True)\n      )\n    )\n    (5): _DecoderBlock(\n      (block_preskip): Sequential(\n        (0): Upsample(scale_factor=2.0, mode=nearest)\n        (1): Conv1d(55, 40, kernel_size=(2,), stride=(1,), padding=same)\n        (2): ELU(alpha=1.0)\n        (3): BatchNorm1d(40, eps=1e-05, momentum=0.1, affine=True, track_running_stats=True)\n      )\n      (block_postskip): Sequential(\n        (0): Conv1d(80, 40, kernel_size=(9,), stride=(1,), padding=same)\n        (1): ELU(alpha=1.0)\n        (2): BatchNorm1d(40, eps=1e-05, momentum=0.1, affine=True, track_running_stats=True)\n      )\n    )\n    (6): _DecoderBlock(\n      (block_preskip): Sequential(\n        (0): Upsample(scale_factor=2.0, mode=nearest)\n        (1): Conv1d(40, 28, kernel_size=(2,), stride=(1,), padding=same)\n        (2): ELU(alpha=1.0)\n        (3): BatchNorm1d(28, eps=1e-05, momentum=0.1, affine=True, track_running_stats=True)\n      )\n      (block_postskip): Sequential(\n        (0): Conv1d(56, 28, kernel_size=(9,), stride=(1,), padding=same)\n        (1): ELU(alpha=1.0)\n        (2): BatchNorm1d(28, eps=1e-05, momentum=0.1, affine=True, track_running_stats=True)\n      )\n    )\n    (7): _DecoderBlock(\n      (block_preskip): Sequential(\n        (0): Upsample(scale_factor=2.0, mode=nearest)\n        (1): Conv1d(28, 20, kernel_size=(2,), stride=(1,), padding=same)\n        (2): ELU(alpha=1.0)\n        (3): BatchNorm1d(20, eps=1e-05, momentum=0.1, affine=True, track_running_stats=True)\n      )\n      (block_postskip): Sequential(\n        (0): Conv1d(40, 20, kernel_size=(9,), stride=(1,), padding=same)\n        (1): ELU(alpha=1.0)\n        (2): BatchNorm1d(20, eps=1e-05, momentum=0.1, affine=True, track_running_stats=True)\n      )\n    )\n    (8): _DecoderBlock(\n      (block_preskip): Sequential(\n        (0): Upsample(scale_factor=2.0, mode=nearest)\n        (1): Conv1d(20, 15, kernel_size=(2,), stride=(1,), padding=same)\n        (2): ELU(alpha=1.0)\n        (3): BatchNorm1d(15, eps=1e-05, momentum=0.1, affine=True, track_running_stats=True)\n      )\n      (block_postskip): Sequential(\n        (0): Conv1d(30, 15, kernel_size=(9,), stride=(1,), padding=same)\n        (1): ELU(alpha=1.0)\n        (2): BatchNorm1d(15, eps=1e-05, momentum=0.1, affine=True, track_running_stats=True)\n      )\n    )\n    (9): _DecoderBlock(\n      (block_preskip): Sequential(\n        (0): Upsample(scale_factor=2.0, mode=nearest)\n        (1): Conv1d(15, 11, kernel_size=(2,), stride=(1,), padding=same)\n        (2): ELU(alpha=1.0)\n        (3): BatchNorm1d(11, eps=1e-05, momentum=0.1, affine=True, track_running_stats=True)\n      )\n      (block_postskip): Sequential(\n        (0): Conv1d(22, 11, kernel_size=(9,), stride=(1,), padding=same)\n        (1): ELU(alpha=1.0)\n        (2): BatchNorm1d(11, eps=1e-05, momentum=0.1, affine=True, track_running_stats=True)\n      )\n    )\n    (10): _DecoderBlock(\n      (block_preskip): Sequential(\n        (0): Upsample(scale_factor=2.0, mode=nearest)\n        (1): Conv1d(11, 9, kernel_size=(2,), stride=(1,), padding=same)\n        (2): ELU(alpha=1.0)\n        (3): BatchNorm1d(9, eps=1e-05, momentum=0.1, affine=True, track_running_stats=True)\n      )\n      (block_postskip): Sequential(\n        (0): Conv1d(18, 9, kernel_size=(9,), stride=(1,), padding=same)\n        (1): ELU(alpha=1.0)\n        (2): BatchNorm1d(9, eps=1e-05, momentum=0.1, affine=True, track_running_stats=True)\n      )\n    )\n    (11): _DecoderBlock(\n      (block_preskip): Sequential(\n        (0): Upsample(scale_factor=2.0, mode=nearest)\n        (1): Conv1d(9, 6, kernel_size=(2,), stride=(1,), padding=same)\n        (2): ELU(alpha=1.0)\n        (3): BatchNorm1d(6, eps=1e-05, momentum=0.1, affine=True, track_running_stats=True)\n      )\n      (block_postskip): Sequential(\n        (0): Conv1d(12, 6, kernel_size=(9,), stride=(1,), padding=same)\n        (1): ELU(alpha=1.0)\n        (2): BatchNorm1d(6, eps=1e-05, momentum=0.1, affine=True, track_running_stats=True)\n      )\n    )\n  )\n  (clf): Sequential(\n    (0): Conv1d(6, 6, kernel_size=(1,), stride=(1,))\n    (1): Tanh()\n    (2): AvgPool1d(kernel_size=(6000,), stride=(6000,), padding=(0,))\n    (3): Conv1d(6, 5, kernel_size=(1,), stride=(1,))\n    (4): ELU(alpha=1.0)\n    (5): Conv1d(5, 5, kernel_size=(1,), stride=(1,))\n    (6): Identity()\n  )\n)"}, "version": 32}
{"obj": {"type": "LogFloats", "path": ["monitoring", "cpu"], "values": [{"value": 19.5, "step": null, "ts": 1666306444.1957908}]}, "version": 33}
{"obj": {"type": "LogFloats", "path": ["monitoring", "memory"], "values": [{"value": 4.630764007568359, "step": null, "ts": 1666306444.1957908}]}, "version": 34}
{"obj": 
…
