…
{"obj": {"type": "AssignFloat", "path": ["model", "parameters", "Beta 2"], "value": 0.999}, "version": 28}
{"obj": {"type": "AssignInt", "path": ["model", "parameters", "n_epochs"], "value": 100}, "version": 29}
{"obj": {"type": "AssignInt", "path": ["model", "parameters", "val_set"], "value": 9}, "version": 30}
{"obj": {"type": "LogFloats", "path": ["monitoring", "cpu"], "values": [{"value": 13.4, "step": null, "ts": 1650627296.295791}]}, "version": 31}
{"obj": {"type": "AssignString", "path": ["model", "model_architecture"], "value": "Cross_Transformer_Network(\n  (eeg_atten): Intra_modal_atten(\n    (window_embed): Window_Embedding(\n      (projection_1): Sequential(\n        (0): Conv1d(1, 64, kernel_size=(50,), stride=(50,))\n        (1): LeakyReLU(negative_slope=0.01)\n        (2): BatchNorm1d(64, eps=1e-05, momentum=0.1, affine=True, track_running_stats=True)\n      )\n      (projection_2): Sequential(\n        (0): Conv1d(1, 32, kernel_size=(5,), stride=(5,))\n        (1): LeakyReLU(negative_slope=0.01)\n        (2): Conv1d(32, 64, kernel_size=(5,), stride=(5,))\n        (3): LeakyReLU(negative_slope=0.01)\n        (4): Conv1d(64, 96, kernel_size=(2,), stride=(2,))\n        (5): LeakyReLU(negative_slope=0.01)\n        (6): BatchNorm1d(96, eps=1e-05, momentum=0.1, affine=True, track_running_stats=True)\n      )\n      (projection_3): Sequential(\n        (0): Conv1d(1, 64, kernel_size=(25,), stride=(25,))\n        (1): LeakyReLU(negative_slope=0.01)\n        (2): Conv1d(64, 96, kernel_size=(2,), stride=(2,))\n        (3): LeakyReLU(negative_slope=0.01)\n        (4): BatchNorm1d(96, eps=1e-05, momentum=0.1, affine=True, track_running_stats=True)\n      )\n      (projection_4): Sequential(\n        (0): Conv1d(256, 256, kernel_size=(1,), stride=(1,))\n        (1): LeakyReLU(negative_slope=0.01)\n        (2): BatchNorm1d(256, eps=1e-05, momentum=0.1, affine=True, track_running_stats=True)\n        (3): Rearrange('b e s -> b s e')\n      )\n      (arrange1): Rearrange('b s e -> s b e')\n      (pos): PositionalEncoding(\n        (dropout): Dropout(p=0.1, inplace=False)\n      )\n      (arrange2): Rearrange('s b e -> b s e ')\n    )\n    (norm): LayerNorm((256,), eps=1e-05, elementwise_affine=True)\n    (self_attn): MultiheadAttention(\n      (out_proj): NonDynamicallyQuantizableLinear(in_features=256, out_features=256, bias=True)\n    )\n    (dropout): Dropout(p=0.1, inplace=False)\n  )\n  (eog_atten): Intra_modal_atten(\n    (window_embed): Window_Embedding(\n      (projection_1): Sequential(\n        (0): Conv1d(1, 64, kernel_size=(50,), stride=(50,))\n        (1): LeakyReLU(negative_slope=0.01)\n        (2): BatchNorm1d(64, eps=1e-05, momentum=0.1, affine=True, track_running_stats=True)\n      )\n      (projection_2): Sequential(\n        (0): Conv1d(1, 32, kernel_size=(5,), stride=(5,))\n        (1): LeakyReLU(negative_slope=0.01)\n        (2): Conv1d(32, 64, kernel_size=(5,), stride=(5,))\n        (3): LeakyReLU(negative_slope=0.01)\n        (4): Conv1d(64, 96, kernel_size=(2,), stride=(2,))\n        (5): LeakyReLU(negative_slope=0.01)\n        (6): BatchNorm1d(96, eps=1e-05, momentum=0.1, affine=True, track_running_stats=True)\n      )\n      (projection_3): Sequential(\n        (0): Conv1d(1, 64, kernel_size=(25,), stride=(25,))\n        (1): LeakyReLU(negative_slope=0.01)\n        (2): Conv1d(64, 96, kernel_size=(2,), stride=(2,))\n        (3): LeakyReLU(negative_slope=0.01)\n        (4): BatchNorm1d(96, eps=1e-05, momentum=0.1, affine=True, track_running_stats=True)\n      )\n      (projection_4): Sequential(\n        (0): Conv1d(256, 256, kernel_size=(1,), stride=(1,))\n        (1): LeakyReLU(negative_slope=0.01)\n        (2): BatchNorm1d(256, eps=1e-05, momentum=0.1, affine=True, track_running_stats=True)\n        (3): Rearrange('b e s -> b s e')\n      )\n      (arrange1): Rearrange('b s e -> s b e')\n      (pos): PositionalEncoding(\n        (dropout): Dropout(p=0.1, inplace=False)\n      )\n      (arrange2): Rearrange('s b e -> b s e ')\n    )\n    (norm): LayerNorm((256,), eps=1e-05, elementwise_affine=True)\n    (self_attn): MultiheadAttention(\n      (out_proj): NonDynamicallyQuantizableLinear(in_features=256, out_features=256, bias=True)\n    )\n    (dropout): Dropout(p=0.1, inplace=False)\n  )\n  (eeg2_atten): Intra_modal_atten(\n    (window_embed): Window_Embedding(\n      (projection_1): Sequential(\n        (0): Conv1d(1, 64, kernel_size=(50,), stride=(50,))\n        (1): LeakyReLU(negative_slope=0.01)\n        (2): BatchNorm1d(64, eps=1e-05, momentum=0.1, affine=True, track_running_stats=True)\n      )\n      (projection_2): Sequential(\n        (0): Conv1d(1, 32, kernel_size=(5,), stride=(5,))\n        (1): LeakyReLU(negative_slope=0.01)\n        (2): Conv1d(32, 64, kernel_size=(5,), stride=(5,))\n        (3): LeakyReLU(negative_slope=0.01)\n        (4): Conv1d(64, 96, kernel_size=(2,), stride=(2,))\n        (5): LeakyReLU(negative_slope=0.01)\n        (6): BatchNorm1d(96, eps=1e-05, momentum=0.1, affine=True, track_running_stats=True)\n      )\n      (projection_3): Sequential(\n        (0): Conv1d(1, 64, kernel_size=(25,), stride=(25,))\n        (1): LeakyReLU(negative_slope=0.01)\n        (2): Conv1d(64, 96, kernel_size=(2,), stride=(2,))\n        (3): LeakyReLU(negative_slope=0.01)\n        (4): BatchNorm1d(96, eps=1e-05, momentum=0.1, affine=True, track_running_stats=True)\n      )\n      (projection_4): Sequential(\n        (0): Conv1d(256, 256, kernel_size=(1,), stride=(1,))\n        (1): LeakyReLU(negative_slope=0.01)\n        (2): BatchNorm1d(256, eps=1e-05, momentum=0.1, affine=True, track_running_stats=True)\n        (3): Rearrange('b e s -> b s e')\n      )\n      (arrange1): Rearrange('b s e -> s b e')\n      (pos): PositionalEncoding(\n        (dropout): Dropout(p=0.1, inplace=False)\n      )\n      (arrange2): Rearrange('s b e -> b s e ')\n    )\n    (norm): LayerNorm((256,), eps=1e-05, elementwise_affine=True)\n    (self_attn): MultiheadAttention(\n      (out_proj): NonDynamicallyQuantizableLinear(in_features=256, out_features=256, bias=True)\n    )\n    (dropout): Dropout(p=0.1, inplace=False)\n  )\n  (cross_atten): Cross_modal_atten(\n    (norm): LayerNorm((256,), eps=1e-05, elementwise_affine=True)\n    (cross_attn): MultiheadAttention(\n      (out_proj): NonDynamicallyQuantizableLinear(in_features=256, out_features=256, bias=True)\n    )\n    (dropout): Dropout(p=0.1, inplace=False)\n  )\n  (eeg_ff): Feed_forward(\n    (norm): LayerNorm((256,), eps=1e-05, elementwise_affine=True)\n    (linear1): Linear(in_features=256, out_features=1024, bias=True)\n    (relu): ReLU()\n    (dropout1): Dropout(p=0.1, inplace=False)\n    (linear2): Linear(in_features=1024, out_features=256, bias=True)\n    (dropout2): Dropout(p=0.1, inplace=False)\n  )\n  (eog_ff): Feed_forward(\n    (norm): LayerNorm((256,), eps=1e-05, elementwise_affine=True)\n    (linear1): Linear(in_features=256, out_features=1024, bias=True)\n    (relu): ReLU()\n    (dropout1): Dropout(p=0.1, inplace=False)\n    (linear2): Linear(in_features=1024, out_features=256, bias=True)\n    (dropout2): Dropout(p=0.1, inplace=False)\n  )\n  (eeg2_ff): Feed_forward(\n    (norm): LayerNorm((256,), eps=1e-05, elementwise_affine=True)\n    (linear1): Linear(in_features=256, out_features=1024, bias=True)\n    (relu): ReLU()\n    (dropout1): Dropout(p=0.1, inplace=False)\n    (linear2): Linear(in_features=1024, out_features=256, bias=True)\n    (dropout2): Dropout(p=0.1, inplace=False)\n  )\n  (mlp): Sequential(\n    (0): Flatten(start_dim=1, end_dim=-1)\n    (1): Linear(in_features=768, out_features=5, bias=True)\n  )\n)"}, "version": 32}
{"obj": {"type": "LogFloats", "path": ["monitoring", "memory"], "values": [{"value": 5.342441558837891, "step": null, "ts": 1650627296.295791}]}, "version": 33}
{"obj": {"type": "LogStrings", "path": ["monitoring", "stdout"], "values": [{"value": "===========================================================Training Epoch : [1/100] ===========================================================================================================>", "step": null, "ts": 1650627296.3234274}]}, "version": 34}
…
